(UNI) PS D:\文档\SMAN-SDCN> conda run -n UNI python test_sdcn_spatial_custom_fixed.py ; "(Roo/PS Workaround: 14)" > $null; start-sleep -milliseconds 150
ä½¿ç”¨CUDA: True
èŠ‚ç‚¹ç‰¹å¾ å½¢çŠ¶: (543, 3)
è¾¹ç‰¹å¾ å½¢çŠ¶: torch.Size([293972, 10])
èŠ‚ç‚¹æ•°é‡ : 543
ç‰¹å¾ ç»´åº¦: 3
è¾¹ç‰¹å¾ ç»´åº¦: 10
è šç±»æ•°é‡ : 3

å¼€å§‹è®­ç»ƒSDCN_Spatialæ¨¡åž‹...
SDCN_Spatial(
  (ae): AE(
    (enc_1): Linear(in_features=3, out_features=500, bias=True)
    (enc_2): Linear(in_features=500, out_features=500, bias=True)
    (enc_3): Linear(in_features=500, out_features=2000, bias=True)
    (z_layer): Linear(in_features=2000, out_features=10, bias=True)
    (dec_1): Linear(in_features=10, out_features=2000, bias=True)
    (dec_2): Linear(in_features=2000, out_features=500, bias=True)
    (dec_3): Linear(in_features=500, out_features=500, bias=True)
    (x_bar_layer): Linear(in_features=500, out_features=3, bias=True)
  )
  (spatial_conv1): SpatialConv(
    (edge_dim_proj): Linear(in_features=10, out_features=500, bias=True)
    (edge_fc): Linear(in_features=1500, out_features=500, bias=True)
    (ee_gat): GATLayer(
      (gat_conv): GATConv(500, 500, heads=4)
    )
    (en_gat): SGATLayer(
      (gat_conv): CustomGATConv(500, 500)
    )
  )
  (spatial_conv2): SpatialConv(
    (edge_dim_proj): Linear(in_features=10, out_features=500, bias=True)
    (edge_fc): Linear(in_features=1500, out_features=500, bias=True)
    (ee_gat): GATLayer(
      (gat_conv): GATConv(500, 500, heads=4)
    )
    (en_gat): SGATLayer(
      (gat_conv): CustomGATConv(500, 500)
    )
  )
  (spatial_conv3): SpatialConv(
    (edge_dim_proj): Linear(in_features=10, out_features=2000, bias=True)
    (edge_fc): Linear(in_features=6000, out_features=2000, bias=True)
    (ee_gat): GATLayer(
      (gat_conv): GATConv(2000, 2000, heads=4)
    )
    (en_gat): SGATLayer(
      (gat_conv): CustomGATConv(2000, 2000)
    )
  )
  (spatial_conv4): SpatialConv(
    (edge_fc): Linear(in_features=30, out_features=10, bias=True)
    (ee_gat): GATLayer(
      (gat_conv): GATConv(10, 10, heads=4)
    )
    (en_gat): SGATLayer(
      (gat_conv): CustomGATConv(10, 10)
    )
  )
  (spatial_conv5): SpatialConv(
    (edge_dim_proj): Linear(in_features=10, out_features=3, bias=True)
    (edge_fc): Linear(in_features=9, out_features=3, bias=True)
    (ee_gat): GATLayer(
      (gat_conv): GATConv(3, 3, heads=4)
    )
    (en_gat): SGATLayer(
      (gat_conv): CustomGATConv(3, 3)
    )
  )
  (proj1): Linear(in_features=3, out_features=500, bias=True)
  (proj2): Linear(in_features=500, out_features=500, bias=True)
  (proj3): Linear(in_features=500, out_features=2000, bias=True)
  (proj4): Linear(in_features=2000, out_features=10, bias=True)
  (proj5): Linear(in_features=10, out_features=3, bias=True)
  (initial_edge_proj): Linear(in_features=10, out_features=10, bias=True)
)
åˆ å§‹è šç±»å®Œæˆ ã€‚è šç±»æ•°é‡ : 3
Epoch 0 è¯„ä¼°å‡ºé”™: Found indices in 'edge_index' that are larger than 3 (got 542). Please ensure that all indices in 'edge_index' point to valid indices in the interval [0, 4) in your node feature matrix and try again.
Epoch 1 è¯„ä¼°å‡ºé”™: Found indices in 'edge_index' that are larger than 3 (got 542). Please ensure that all indices in 'edge_index' point to valid indices in the interval [0, 4) in your node feature matrix and try again.
…
