(UNI) PS D:\文档\SMAN-SDCN> python test_sdcn_dlaa.py ; "(Roo/PS Workaround: 16)" > $null; start-sleep -milliseconds 150
使用CUDA: True
节点特征形状: (543, 3)
边特征形状: torch.Size([293972, 10])
节点数量: 543
特征维度: 3
边特征维度: 10
聚类数量: 3

开始训练SDCN_DLAA模型...
性能优化：预计算图结构...
预处理边到边图关系（一次性操作）...
边到边图构建完成: 48870 条边对连接
预计算完成：节点到节点边数量: 293972, 边到边连接数量: 48870
SDCN_DLAA(
  (ae): AE(
    (enc_1): Linear(in_features=3, out_features=500, bias=True)
    (enc_2): Linear(in_features=500, out_features=500, bias=True)
    (enc_3): Linear(in_features=500, out_features=2000, bias=True)
    (z_layer): Linear(in_features=2000, out_features=10, bias=True)
    (dec_1): Linear(in_features=10, out_features=2000, bias=True)
    (dec_2): Linear(in_features=2000, out_features=500, bias=True)
    (dec_3): Linear(in_features=500, out_features=500, bias=True)
    (x_bar_layer): Linear(in_features=500, out_features=3, bias=True)
  )
  (spatial_conv1): SpatialConv(
    (edge_dim_proj): Linear(in_features=10, out_features=500, bias=True)
    (edge_fc): Linear(in_features=1500, out_features=500, bias=True)
    (ee_gat): GATLayer(
      (gat_conv): GATConv(500, 500, heads=4)
    )
    (en_gat): SGATLayer(
      (gat_conv): CustomGATConv(500, 500)
    )
  )
  (spatial_conv2): SpatialConv(
    (edge_dim_proj): Linear(in_features=10, out_features=500, bias=True)
    (edge_fc): Linear(in_features=1500, out_features=500, bias=True)
    (ee_gat): GATLayer(
      (gat_conv): GATConv(500, 500, heads=4)
    )
    (en_gat): SGATLayer(
      (gat_conv): CustomGATConv(500, 500)
    )
  )
  (spatial_conv3): SpatialConv(
    (edge_dim_proj): Linear(in_features=10, out_features=2000, bias=True)
    (edge_fc): Linear(in_features=6000, out_features=2000, bias=True)
    (ee_gat): GATLayer(
      (gat_conv): GATConv(2000, 2000, heads=4)
    )
    (en_gat): SGATLayer(
      (gat_conv): CustomGATConv(2000, 2000)
    )
  )
  (spatial_conv4): SpatialConv(
    (edge_fc): Linear(in_features=30, out_features=10, bias=True)
    (ee_gat): GATLayer(
      (gat_conv): GATConv(10, 10, heads=4)
    )
    (en_gat): SGATLayer(
      (gat_conv): CustomGATConv(10, 10)
    )
  )
  (spatial_conv5): SpatialConv(
    (edge_dim_proj): Linear(in_features=10, out_features=3, bias=True)
    (edge_fc): Linear(in_features=9, out_features=3, bias=True)
    (ee_gat): GATLayer(
      (gat_conv): GATConv(3, 3, heads=4)
    )
    (en_gat): SGATLayer(
      (gat_conv): CustomGATConv(3, 3)
    )
  )
  (proj1): Linear(in_features=3, out_features=500, bias=True)
  (proj2): Linear(in_features=500, out_features=500, bias=True)
  (proj3): Linear(in_features=500, out_features=2000, bias=True)
  (proj4): Linear(in_features=2000, out_features=10, bias=True)
  (proj5): Linear(in_features=10, out_features=3, bias=True)
  (initial_edge_proj): Linear(in_features=10, out_features=10, bias=True)
)
D:\Anaconda\envs\UNI\Lib\site-packages\sklearn\cluster\_kmeans.py:1429: UserWarning: KMeans is known to have a memory leak on Windows with MKL, when there are less chunks than available threads. You can avoid it by setting the environment variable OMP_NUM_THREADS=3.
  warnings.warn(
初始聚类完成。聚类数量: 3
Epoch 0 评估出错: Found indices in 'edge_index' that are larger than 3 (got 542). Please ensure that all indices in 'edge_index' point to valid indices in the interval [0, 4) in your node feature matrix and try again.
…
