使用CUDA: True
节点特征形状: (543, 3)
边特征形状: torch.Size([293972, 10])

--- 参数配置 ---
学习率 (lr): 0.001
聚类数量 (n_clusters): 3
潜在空间维度 (n_z): 10
Dropout率: 0.2
GAT头数 (heads): 1
边特征维度 (edge_dim): 10
每个节点最大边数 (max_edges_per_node): 10
隐藏层大小 1 (hs1): 256
隐藏层大小 2 (hs2): 256
隐藏层大小 3 (hs3): 1024
--- 数据信息 ---
节点数量: 543
特征维度 (n_input): 3
边特征形状: torch.Size([293972, 10])
-----------------


开始训练可变隐藏层大小的SDCN_DLAA模型...
性能优化：预计算图结构...
构建边到边连接...
预计算完成：节点到节点边数量: 293972, 边到边连接数量: 48870
SDCN_DLAA(
  (ae): AE(
    (enc_1): Linear(in_features=3, out_features=256, bias=True)
    (enc_2): Linear(in_features=256, out_features=256, bias=True)
    (enc_3): Linear(in_features=256, out_features=1024, bias=True)
    (z_layer): Linear(in_features=1024, out_features=10, bias=True)
    (dec_1): Linear(in_features=10, out_features=1024, bias=True)
    (dec_2): Linear(in_features=1024, out_features=256, bias=True)
    (dec_3): Linear(in_features=256, out_features=256, bias=True)
    (x_bar_layer): Linear(in_features=256, out_features=3, bias=True)
  )
  (spatial_conv1): SpatialConv(
    (edge_dim_proj): Linear(in_features=10, out_features=256, bias=True)
    (edge_fc): Linear(in_features=768, out_features=256, bias=True)
    (ee_gat): GATLayer(
      (gat_conv): GATConv(256, 256, heads=1)
    )
    (en_gat): SGATLayer(
      (gat_conv): GATConv(256, 256, heads=1)
    )
  )
  (spatial_conv2): SpatialConv(
    (edge_dim_proj): Linear(in_features=10, out_features=256, bias=True)
    (edge_fc): Linear(in_features=768, out_features=256, bias=True)
    (ee_gat): GATLayer(
      (gat_conv): GATConv(256, 256, heads=1)
    )
    (en_gat): SGATLayer(
      (gat_conv): GATConv(256, 256, heads=1)
    )
  )
  (spatial_conv3): SpatialConv(
    (edge_dim_proj): Linear(in_features=10, out_features=1024, bias=True)
    (edge_fc): Linear(in_features=3072, out_features=1024, bias=True)
    (ee_gat): GATLayer(
      (gat_conv): GATConv(1024, 1024, heads=1)
    )
    (en_gat): SGATLayer(
      (gat_conv): GATConv(1024, 1024, heads=1)
    )
  )
  (spatial_conv4): SpatialConv(
    (edge_fc): Linear(in_features=30, out_features=10, bias=True)
    (ee_gat): GATLayer(
      (gat_conv): GATConv(10, 10, heads=1)
    )
    (en_gat): SGATLayer(
      (gat_conv): GATConv(10, 10, heads=1)
    )
  )
  (spatial_conv5): SpatialConv(
    (edge_dim_proj): Linear(in_features=10, out_features=3, bias=True)
    (edge_fc): Linear(in_features=9, out_features=3, bias=True)
    (ee_gat): GATLayer(
      (gat_conv): GATConv(3, 3, heads=1)
    )
    (en_gat): SGATLayer(
      (gat_conv): GATConv(3, 3, heads=1)
    )
  )
  (proj1): Linear(in_features=3, out_features=256, bias=True)
  (proj2): Linear(in_features=256, out_features=256, bias=True)
  (proj3): Linear(in_features=256, out_features=1024, bias=True)
  (proj4): Linear(in_features=1024, out_features=10, bias=True)
  (proj5): Linear(in_features=10, out_features=3, bias=True)
  (initial_edge_proj): Linear(in_features=10, out_features=10, bias=True)
)
初始聚类完成。聚类数量: 3
Epoch 0 评估出错: CUDA error: out of memory
CUDA kernel errors might be asynchronously reported at some other API call, so the stacktrace below might be incorrect.
For debugging consider passing CUDA_LAUNCH_BLOCKING=1.
Compile with `TORCH_USE_CUDA_DSA` to enable device-side assertions.

Epoch 1 评估出错: CUDA error: out of memory
CUDA kernel errors might be asynchronously reported at some other API call, so the stacktrace below might be incorrect.
…
