use cuda: True
Namespace(name='acm', k=None, lr=0.001, n_clusters=3, n_z=10, pretrain_path='data/acm.pkl', dropout=0.2, heads=4, edge_dim=1870, use_edge_attr=False, cuda=True, device=device(type='cuda'), n_input=1870)
SDCN_Spatial(
  (ae): AE(
    (enc_1): Linear(in_features=1870, out_features=500, bias=True)
    (enc_2): Linear(in_features=500, out_features=500, bias=True)
    (enc_3): Linear(in_features=500, out_features=2000, bias=True)
    (z_layer): Linear(in_features=2000, out_features=10, bias=True)
    (dec_1): Linear(in_features=10, out_features=2000, bias=True)
    (dec_2): Linear(in_features=2000, out_features=500, bias=True)
    (dec_3): Linear(in_features=500, out_features=500, bias=True)
    (x_bar_layer): Linear(in_features=500, out_features=1870, bias=True)
  )
  (spatial_embedding): SpatialEmbedding(
    (embed_layer): Linear(in_features=1870, out_features=10, bias=False)
  )
  (spatial_conv1): SpatialConv(
    (edge_fc): Linear(in_features=1500, out_features=500, bias=True)
    (ee_gat): GATLayer(
      (gat_conv): GATConv(500, 500, heads=4)
    )
    (en_gat): SGATLayer(
      (gat_conv): CustomGATConv(500, 500)
    )
  )
  (spatial_conv2): SpatialConv(
    (edge_fc): Linear(in_features=1500, out_features=500, bias=True)
    (ee_gat): GATLayer(
      (gat_conv): GATConv(500, 500, heads=4)
    )
    (en_gat): SGATLayer(
      (gat_conv): CustomGATConv(500, 500)
    )
  )
  (spatial_conv3): SpatialConv(
    (edge_fc): Linear(in_features=6000, out_features=2000, bias=True)
    (ee_gat): GATLayer(
      (gat_conv): GATConv(2000, 2000, heads=4)
    )
    (en_gat): SGATLayer(
      (gat_conv): CustomGATConv(2000, 2000)
    )
  )
  (spatial_conv4): SpatialConv(
    (edge_fc): Linear(in_features=30, out_features=10, bias=True)
    (ee_gat): GATLayer(
      (gat_conv): GATConv(10, 10, heads=4)
    )
    (en_gat): SGATLayer(
      (gat_conv): CustomGATConv(10, 10)
    )
  )
  (spatial_conv5): SpatialConv(
    (edge_fc): Linear(in_features=9, out_features=3, bias=True)
    (ee_gat): GATLayer(
      (gat_conv): GATConv(3, 3, heads=4)
    )
    (en_gat): SGATLayer(
      (gat_conv): CustomGATConv(3, 3)
    )
  )
  (proj1): Linear(in_features=1870, out_features=500, bias=True)
  (proj2): Linear(in_features=500, out_features=500, bias=True)
  (proj3): Linear(in_features=500, out_features=2000, bias=True)
  (proj4): Linear(in_features=2000, out_features=10, bias=True)
  (proj5): Linear(in_features=10, out_features=3, bias=True)
)
pae :acc 0.3921 , nmi 0.0096 , ari 0.0099 , f1 0.3924
